…
n  ุจุง10\n  ููุฑูู ู ูุนุงู  ุณุงุฒsoftmax\n  ู\nุณุงุฒู: \nmodel.add(Dense(10, activation='softmax')) \nุณุงุฎุช  ูุนูุงุฑ\n  \n  ูุง\nุงฺฉููู  ุจู ูพุง ุงู   ุฏ ุฑุณ.  \n  ุุญุงู\n ุจุฑุง  ูุดุงูุฏู ุฎุงูุตู\nุง  ุงุฒ ูุนูุงุฑ   \n ฺฉุงููุ ฺฉุฏ  \n ุฒุฑ  \nุฑุง ุงุฌุฑุง ู\n ู ฺฉู: \nmodel.summary() \nModel: \"sequential\" \n_________________________________________________________________ \nLayer (type)                Output Shape              Param # \n================================================================= \nconv2d (Conv2D)             (None, 32, 32, 32)        896 \n \nconv2d_1 (Conv2D)           (None, 32, 32, 32)        9248 \n \nmax_pooling2d (MaxPooling2D)  (None, 16, 16, 32)       0 \n \nmax_pooling2d_1 (MaxPooling2D)   (None, 8, 8, 32)         0 \n \n \ndropout (Dropout)           (None, 8, 8, 32)          0 \n \nflatten (Flatten)           (None, 2048)              0 \n \ndense (Dense)               (None, 512)               1049088 \n \ndropout_1 (Dropout)         (None, 512)               0 \n \ndense_1 (Dense)             (None, 10)                5130 \n \n================================================================= \nTotal params: 1,064,362 \nTrainable params: 1,064,362 \nNon-trainable params: 0 \n_________________________________________________________________ \n  ุุณูพุณ\nูุฏู ุฑุง ุจุง ุชูุธ\nูุงุช   ุฎูุฏ ฺฉุงููพุง\nู  ู  ู ฺฉู: \nmodel.compile(loss='categorical_crossentropy', \n              optimizer='adam', \n     
…
